3.1/Camera parameters.npz (npz, 1354 bytes, 4 tensors)

cameraMatrix f8 [3, 3]
000000 e9 29 20 80 cf cd 8c 40 00 00 00 00 00 00 00 00
       921.7263185990133 0.0
000010 56 55 8d b2 d0 98 76 40 00 00 00 00 00 00 00 00
       361.55095153053605 0.0
000020 df ae 13 57 7f af 8c 40 e8 68 44 9f 96 53 6c 40
       917.9371778047315 226.61213649140632
000030 00 00 00 00 00 00 00 00 00 00 00 00 00 00 00 00
       0.0 0.0
000040 00 00 00 00 00 00 f0 3f
       1.0

dist f8 [1, 5]
000000 4e 8c e0 e9 5c 0d b8 bf 14 99 ba c6 de c8 18 40
       -0.09395390233889708 6.196162324084316
000010 e7 fd 8b 43 89 23 7b 3f 79 f3 64 2a ca ed b1 3f
       0.006625686823781041 0.07003463301675862
000020 0b 6d 66 52 ce f9 4c c0
       -57.95160894395129

rvecs f8 [5, 3, 1]
000000 3b d0 2d 44 6f 92 c0 bf 10 17 26 8f de 90 dc 3f
       -0.12946883038569176 0.44634212474225965
000010 9f 14 86 f5 ef 71 cb bf 20 49 fe 92 8d 54 ba bf
       -0.21441459167923413 -0.10285267676070875
000020 ef 1b f7 70 e6 45 c0 3f 9b 81 c2 bc ce 56 d3 bf
       0.12713318363077472 -0.30217331346104864
000030 13 f9 2b 78 01 4c 8c 3f 34 d0 35 f5 65 23 c0 bf
       0.013816844444133147 -0.12608026955752083
000040 81 06 13 42 e9 44 e6 bf 42 2f cc 5a 00 9d c4 bf
       -0.6959120073808692 -0.16104130204655048
000050 1f 92 ef cc ae e2 ab bf 35 df 5c ff 76 88 e5 bf
       -0.05446382762582779 -0.672908304934913
000060 fc b5 cb eb 23 75 ca bf d6 b2 db 0b 99 81 d6 3f
       -0.20669983876670972 0.35166002424265963
000070 05 8c 06 a0 cd ec d4 bf
       -0.32695332171914543

tvecs f8 [5, 3, 1]
000000 0a f6 e6 0d 20 03 01 40 41 d3 59 ed 85 77 fc bf
       2.12652598248565 -1.7791804572600116
000010 72 de d8 be 4e 7e 3c 40 5f 0e c2 b0 81 9c 20 c0
       28.493389060923114 -8.30567695969438
000020 22 98 d2 9d 7f d3 03 c0 1a 1c a4 3b 5f 3f 3c 40
       -2.478270752896621 28.247546889844763
000030 30 26 b4 d4 64 be e9 bf 31 3f 8b 1d 90 85 01 c0
       -0.8044914392823497 -2.1902162845725788
000040 66 68 52 9b 11 f5 3d 40 df 79 28 a2 d3 86 10 c0
       29.957299907321065 -4.131666692467177
000050 57 55 9c 28 b7 a7 ef 3f f8 6c c0 14 ce 41 3d 40
       0.989223079030732 29.25705079744236
000060 01 ac 5d 22 d4 36 24 c0 c6 63 75 4f 0a ef 09 40
       -10.10708720582443 3.2417188842486864
000070 13 a5 f5 8e eb dd 3e 40
       30.866875586482887
